ma_ho_ney/ma_ho_ney.tflite (tflite, 206748 bytes, 9 tensors)

Const_1 f4 [32]
0	0xbcb207d2	-0.021732245
1	0xbaad182c	-0.0013206056
2	0x3c83921b	0.01606088
3	0x3cf7082e	0.030155268
4	0x3ba19be6	0.0049319146
5	0x3c7d6b54	0.015467484
6	0x3cb06763	0.021533674
7	0x3bf808cc	0.007569408
8	0x3cb9838f	0.02264574
9	0x3c7cf749	0.015439817
10	0x3c8035a4	0.015650578
11	0x3c285ef7	0.010276548
12	0x3b0f49d3	0.002186407
13	0xbbe448b8	-0.0069666766
14	0x3bc4028e	0.00598175
15	0x3c62ad1e	0.01383522
16	0xbc309afb	-0.010779138
17	0xbba945df	-0.0051658
18	0x3b5f79af	0.0034099629
19	0x3c5dd03f	0.013538419
20	0x3cb82fa5	0.022483656
21	0xbace8991	-0.0015757551
22	0xbcc6073f	-0.024173377
23	0x3c926313	0.017869508
24	0xbba21f61	-0.0049475883
25	0x3ba96d6d	0.0051705153
26	0x3c70ffcd	0.014709425
27	0x3c778360	0.015107006
28	0xbca2bd88	-0.019865766
29	0xbc56b41b	-0.013104464
30	0xbc313252	-0.01081522
31	0x3ce8ee19	0.028433846

Const_2 f4 [32]
0	0x3f7ed517	0.995439
1	0x3f7f78e0	0.99793816
2	0x3f81cb46	1.0140159
3	0x3f7f1974	0.99648213
4	0x3f845aef	1.0340251
5	0x3f7f301a	0.9968277
6	0x3f7cbc04	0.9872439
7	0x3f7f11aa	0.9963633
8	0x3f7f9542	0.99837124
9	0x3f7d2acd	0.98893434
10	0x3f81aba8	1.013051
11	0x3f7fefd2	0.9997531
12	0x3f7d561a	0.98959506
13	0x3f81d5b3	1.0143341
14	0x3f78fce4	0.9726088
15	0x3f787d64	0.9706633
16	0x3f791ff9	0.9731441
17	0x3f8547e0	1.041256
18	0x3f7bee41	0.9841042
19	0x3f7f98ca	0.9984251
20	0x3f7d0293	0.9883205
21	0x3f80c73b	1.00608
22	0x3f7ed925	0.99550086
23	0x3f84b560	1.0367851
24	0x3f76d20d	0.9641426
25	0x3f813b5b	1.0096239
26	0x3f828505	1.0196844
27	0x3f80f116	1.0073574
28	0x3f81356c	1.0094428
29	0x3f8429df	1.0325278
30	0x3f7aee72	0.9802009
31	0x3f7ea02e	0.99463165

Const_3 f4 [32]
0	0xbc4fd32a	-0.012684623
1	0x3ba3f56f	0.005003623
2	0xbc498f60	-0.01230225
3	0x3c41dada	0.011831963
4	0x3b3b8d14	0.0028618025
5	0xbc3dbabc	-0.0115801655
6	0xbc827f50	-0.015929848
7	0xbc447c22	-0.011992486
8	0xbbfa9a8d	-0.0076478184
9	0xbc6104c7	-0.013734049
10	0x3bb119e7	0.005404699
11	0xbc50773c	-0.01272374
12	0xbbf8c10c	-0.0075913724
13	0x3c991b15	0.018689672
14	0xbc9578c2	-0.018246058
15	0x3b360de3	0.0027779273
16	0x3c9b629f	0.018967925
17	0x3bacea89	0.005276982
18	0xbcc0053c	-0.023439996
19	0xbc195759	-0.009359204
20	0xbbfe0738	-0.0077523254
21	0xbb7edbd9	-0.0038888364
22	0xbc545c20	-0.012961417
23	0x3b044367	0.0020181776
24	0x3c78b8c2	0.015180768
25	0x3cbe7b85	0.023252258
26	0xbc6d75f0	-0.0144934505
27	0x389c62ef	7.4570875e-05
28	0xbcfd0efd	-0.030890936
29	0x3c9cc37e	0.019136187
30	0x3ae229b2	0.0017254858
31	0x3a9aa731	0.0011799095

Const_5 f4 [32]
0	0x3e1509af	0.14554475
1	0xbdfd74cc	-0.12375793
2	0x3dd84426	0.10559873
3	0xbb4963ef	-0.003072973
4	0x3e14163d	0.14461608
5	0x3dfd3063	0.12362745
6	0xbdd20310	-0.102544904
7	0x3c3e8383	0.0116280345
8	0x3d9ab534	0.07554093
9	0xbe17fdc8	-0.14842904
10	0xbd9590a7	-0.07302981
11	0x3de70aea	0.112813786
12	0x3e1d8482	0.15382579
13	0xbdc7deae	-0.0975927
14	0xbde5ef60	-0.11227298
15	0x3e0cb9ed	0.137428
16	0xbe117d40	-0.14207935
17	0x3d5b07b4	0.053474143
18	0xbdf2ec62	-0.11861493
19	0x3cd6220d	0.026139284
20	0xbe1cfb6d	-0.15330286
21	0x3dd25a4b	0.10271128
22	0xbdd2b55f	-0.102885
23	0x3d9dae4e	0.076992616
24	0xbc938e84	-0.018012293
25	0xbbc502ef	-0.0060123126
26	0xbe27434b	-0.16334264
27	0xbcac5a54	-0.021039166
28	0x3d31bbc2	0.04339195
29	0x3db0169b	0.08598062
30	0x3d37adb8	0.044843405
31	0x3c0ef7bd	0.008726058

Const_6 f4 [32]
0	0x3f8883fb	1.0665277
1	0x3f8a92e8	1.0826082
2	0x3f9feca0	1.2494087
3	0x3f7e8eaf	0.9943647
4	0x3f79f8b4	0.97645116
5	0x3f802d39	1.0013801
6	0x3f6f3864	0.9344542
7	0x3f7eeaf4	0.9957726
8	0x3fa95402	1.3228762
9	0x3f81421e	1.0098302
10	0x3f9c1640	1.219429
11	0x3f869ca5	1.0516554
12	0x3f9bd170	1.217329
13	0x3f9dbc37	1.2323064
14	0x3f7da7f9	0.9908443
15	0x3f85328e	1.0406053
16	0x3f70c814	0.94055295
17	0x3f8275fc	1.0192256
18	0x3f83a2b0	1.0284023
19	0x3f8d409f	1.1035346
20	0x3f9e02f2	1.2344649
21	0x3f82e507	1.0226144
22	0x3fa5a58d	1.2941147
23	0x3fb04931	1.3772336
24	0x3f880b4b	1.0628446
25	0x3f7fc72c	0.9991329
26	0x3f80f26c	1.0073981
27	0x3f7c0859	0.9845024
28	0x3f837231	1.0269223
29	0x3fa0bf75	1.2558428
30	0x3f88ac4f	1.0677584
31	0x3f7fa6cf	0.99863905

Const_7 f4 [32]
0	0x3cfc9bdc	0.030836038
1	0x3d9823ad	0.074286796
2	0x3e75d7fa	0.2400817
3	0xbc640fed	-0.013919813
4	0xbc0c3441	-0.00855738
5	0x3b318e08	0.0027092714
6	0xbd4e9882	-0.05043841
7	0xbc60fac9	-0.013731667
8	0x3e8d3433	0.27578887
9	0xbc931059	-0.017952131
10	0x3e808d3e	0.2510776
11	0x3cbf0ef7	0.023322565
12	0x3e6e1034	0.23248369
13	0x3e711a77	0.23545252
14	0xbc71cc52	-0.014758186
15	0x3ccd2115	0.025040189
16	0xbd87754e	-0.06614171
17	0x3ba5b9ed	0.0050575645
18	0x3ca2f181	0.019890549
19	0x3da66251	0.08124221
20	0x3e7e5659	0.24837627
21	0x3c971849	0.018444197
22	0x3e87eb08	0.26546502
23	0x3e991af6	0.29903382
24	0x3d00faa5	0.031489033
25	0xbb1a93cc	-0.002358663
26	0x3c221b80	0.009894252
27	0xbcac7aea	-0.021054704
28	0x3c16e62f	0.0092101535
29	0x3e758510	0.2397654
30	0x3d321d31	0.04348487
31	0xbaf3f270	-0.0018611681

MatMul f4 [32, 1536]
0	0x3c51439b	0.012772466
1	0x3bdfe5b1	0.0068328013
2	0xbc12f246	-0.008968895
3	0xbc2aa82e	-0.010416074
4	0x3cb7b818	0.02242665
5	0x3c7bb518	0.015363
6	0x3c1b1919	0.009466433
7	0xbccd47bf	-0.025058625
8	0xbbaa0f18	-0.0051897876
9	0xbaf4822c	-0.0018654517
10	0x3be8777a	0.007094321
11	0x3c1c0d6f	0.009524687
12	0x3c0be4f1	0.008538471
13	0x3c853854	0.01626221
14	0x3c809e87	0.015700592
15	0xbc9f5dd0	-0.019453913
16	0xbc9def27	-0.019279076
17	0xbbd24cd1	-0.0064178486
18	0x3c250d2a	0.010073939
19	0x3c294ef5	0.010333766
20	0xbce42474	-0.027849413
21	0x3c27a97b	0.010233278
22	0x3c8244e7	0.015901996
23	0xbb843762	-0.0040349225
24	0xbc88de83	-0.016707664
25	0x3aab3561	0.0013062173
26	0x3aed752c	0.0018116585
27	0xbc5d730a	-0.013516197
28	0x3c780097	0.015136859
29	0xbc281060	-0.01025781
30	0xbc803068	-0.015648082
31	0xbc62f465	-0.0138522135
32	0xbbddfde2	-0.00677465
33	0xbbe15c01	-0.006877423
34	0xbcbc49f8	-0.02298449
35	0x3c08aead	0.008342427
36	0xbc3fa0e5	-0.011696075
37	0x3cbfb688	0.023402467
38	0x3ca82399	0.020524787
39	0x3c9f276e	0.019427981
40	0x3caeeec9	0.021354096
41	0x3c8f5ca3	0.017500227
42	0x3c0c942b	0.008580248
43	0xbc0b0a9d	-0.008486417
44	0x3ca0a4d2	0.019609842
45	0xbce0d309	-0.02744438
46	0xbca3327d	-0.019921536
47	0x3c72f9b5	0.014830043
48	0xbbd15eb7	-0.0063894647
49	0x3cfe19dd	0.031018192
50	0xbc8a7db1	-0.016905637
51	0xba0065fd	-0.000489801
52	0x3b9498de	0.0045348248
53	0xbc17da20	-0.009268314
54	0xbc67c6ea	-0.014146546
55	0x3c2e0ef4	0.010623682
56	0x3bf47318	0.0074600093
57	0x3c18d190	0.009327307
58	0x3c948477	0.01812957
59	0xbcaae10b	-0.020859262
60	0x3c56c04f	0.013107373
61	0xbcba7cc6	-0.022764575
62	0xba063885	-0.00051201164
63	0x3c0caa9b	0.008585597
64	0xbcccfc60	-0.025022686
65	0xb958fd76	-0.00020693787
66	0xbbd2248a	-0.006413047
67	0x3af29a0e	0.0018509047
68	0xbc9cc857	-0.019138498
69	0x3baca515	0.0052687027
70	0xbbcea788	-0.0063065924
71	0x3b07cd83	0.002072186
72	0xba90b474	-0.0011040107
73	0xbc275c23	-0.010214838
74	0x3cb5bb48	0.02218403
75	0x3cc6d973	0.02427361
76	0x3cc0d4df	0.023539005
77	0xbb493920	-0.0030704215
78	0x3c512f6d	0.012767655
79	0xbb8dc554	-0.004326502
80	0xbca7f107	-0.020500673
81	0x3b366b43	0.002783493
82	0x3c9256e8	0.017863706
83	0x3cc09acc	0.023511313
84	0x3cac9755	0.021068254
85	0xbc109830	-0.008825347
86	0xbbbf44b5	-0.005837048
87	0xbcdbbbda	-0.026822973
88	0x3cc3e299	0.023911761
89	0xbada214e	-0.0016642006
90	0xbb8e49ff	-0.004342317
91	0x3c2624ae	0.010140581
92	0xbcbd07bd	-0.023074979
93	0xbca1a101	-0.019730093
94	0xbbaabc9e	-0.005210473
95	0x3c35b64c	0.011090826
96	0xbc80ba12	-0.015713725
97	0x3c5da392	0.013527768
98	0x3bf77cd5	0.007552723
99	0xbcdec22c	-0.027192198
100	0x3c63a915	0.013895293
101	0x3c5ec788	0.013597377
102	0xbc801397	-0.015634341
103	0xbc1e4c95	-0.009661813
104	0xbc81210c	-0.015762828
105	0x3b89f678	0.0042102896
106	0xbc7c9dc4	-0.015418474
107	0xbc683754	-0.0141733475
108	0x3c63da49	0.013907024
109	0x3caad2e2	0.02085251
110	0xbbca31d7	-0.006170492
111	0x3cb0056c	0.02148696
112	0xbb3dcbe9	-0.0028960651
113	0x3b97fad8	0.004638057
114	0x3b49b677	0.0030778924
115	0x3beb5a31	0.0071823825
116	0x3b926bf1	0.004468434
117	0x3c87b655	0.016566435
118	0xbc81d000	-0.015846252
119	0x3c71824f	0.014740541
120	0x3c194646	0.009355133
121	0xbc168a90	-0.009188309
122	0x3cc5ffcf	0.02416983
123	0xbc7a112a	-0.015262881
124	0x3b7f10d8	0.0038919952
125	0x3c90e0e6	0.017685365
126	0x3c25e99b	0.010126497
127	0xbc6a47e3	-0.014299366
128	0xbbf28eaa	-0.007402261
129	0x3c353f88	0.01106251
130	0xbd00d27c	-0.031450734
131	0xbaea30ec	-0.0017867363
132	0xbc1635e7	-0.009168125
133	0x3c56dfd4	0.013114888
134	0xbbfdb976	-0.007743056
135	0x3c84b39b	0.016198924
136	0xbbd5ed8c	-0.006528562
137	0xbccaad4d	-0.02474084
138	0xbc982d7d	-0.018576378
139	0x3b54ae54	0.003245254
140	0x3c99961a	0.018748332
141	0xbca56d82	-0.020193819
142	0xbcace2ee	-0.021104302
143	0xbc725350	-0.014790371
144	0x3b264ee8	0.0025376622
145	0xbb0387aa	-0.0020069876
146	0x3c975458	0.018472835
147	0x3c8399f1	0.016064616
148	0x3be91a7f	0.0071137543
149	0x3c1c22a5	0.009529744
150	0xbcb6babd	-0.02230584
151	0xbcc36cc6	-0.023855578
152	0x3ad2d3e3	0.0016084876
153	0xbc6d835c	-0.014496651
154	0xbc3bc1a4	-0.011459742
155	0x3c101fd2	0.008796649
156	0x3c94e305	0.018174658
157	0xbc1dc534	-0.009629536
158	0xbc117adb	-0.008879389
159	0xbbdd3ac4	-0.00675139
160	0xbc798bd0	-0.015231088
161	0xbca8c0bc	-0.020599715
162	0x3ca72bd9	0.02040665
163	0x3cb7e7a2	0.022449318
164	0x3b007fab	0.0019607346
165	0xbb682583	-0.003542275
166	0x39b22733	0.0003398001
167	0x3c5fe2f5	0.013664951
168	0x3d01dee8	0.03170672
169	0x3c92c826	0.017917704
170	0xbcccf3d5	-0.025018612
171	0x3b0a0e96	0.0021065823
172	0x3ced963f	0.029002307
173	0xbaaa4e17	-0.0012993243
174	0xbc43c869	-0.011949637
175	0x3c909919	0.017651128
176	0x3c1e08ca	0.00964565
177	0xbc70e3cc	-0.0147027485
178	0xbc6da035	-0.014503528
179	0xbb38e7ee	-0.0028214413
180	0x3c22a457	0.009926877
181	0xbb1cf634	-0.002395046
182	0xbc3f42e0	-0.011673659
183	0x3c7a524e	0.015278412
184	0x3c718643	0.014741483
185	0x3c6cc2fc	0.014450785
186	0x3c893376	0.016748171
187	0x3c1abdc7	0.0094446605
188	0xbcaa7180	-0.020806074
189	0xbbf48ddc	-0.0074632
190	0xbc19c10e	-0.009384407
191	0xbbdc6a88	-0.0067265667
192	0x3cb14894	0.021641053
193	0xbc666d68	-0.01406417
194	0xbc9ca929	-0.01912363
195	0xbcf2e718	-0.02965121
196	0xbb458ff2	-0.0030145613
197	0x3c613aeb	0.013746957
198	0x3c87f4af	0.016596166
199	0x3be31d91	0.006931015
200	0xbc1b4dbc	-0.009478983
201	0x3bf9e5a4	0.0076262522
202	0xbc741460	-0.014897436
203	0x3c5fa24b	0.0136495335
204	0xbbd661eb	-0.0065424345
205	0xbc516eeb	-0.012782793
206	0xbccd75c4	-0.02508057
207	0x3c0b9c2a	0.008521119
208	0x3b2c5f4c	0.0026301919
209	0xbafcfe03	-0.0019301776
210	0xbbfc3792	-0.007697054
211	0xbc013e41	-0.007888378
212	0xbc464967	-0.012102461
213	0x3c89ffeb	0.016845664
214	0xbc40163e	-0.011724053
215	0xbd055e02	-0.032560356
216	0x39f8bf6a	0.0004744486
217	0x3c837401	0.016046526
218	0xbbca156e	-0.0061671054
219	0xbd1e4e00	-0.038648605
220	0xbb188cd3	-0.0023277297
221	0x3bb96cc7	0.005658719
222	0xbc019b86	-0.007910615
223	0x3bb72476	0.0055890633
224	0x3b3c76c1	0.0028757306
225	0x37e5213d	2.7314405e-05
226	0xbacf68a3	-0.0015824031
227	0xbbf89cf7	-0.007587071
228	0x3c8154a8	0.015787438
229	0x3c15a351	0.009133176
230	0xbc0a5df3	-0.008445251
231	0xbcc316fa	-0.023814667
232	0xbcc0bd19	-0.023527669
233	0x3cc5618a	0.024094362
234	0xbba8a51b	-0.005146635
235	0x3cd40a3d	0.025883788
236	0x39cfe221	0.00039650596
237	0x3c48cf21	0.012256415
238	0x3b9289af	0.0044719796
239	0xbc61eb0a	-0.013788948
240	0x3bb9d83e	0.00567153
241	0x3d0e0c35	0.03467961
242	0x3c9b729e	0.018975552
243	0xbcc753a4	-0.024331875
244	0x3bee2cda	0.0072685303
245	0x3bb6ab56	0.005574624
246	0xbca7ca6d	-0.020482266
247	0x3cc5e4b3	0.024156904
248	0x3c71c237	0.014755777
249	0x3c4931b8	0.01227992
250	0xbc8fc5fe	-0.017550465
251	0x3cc0b143	0.023522025
252	0xbc70faa7	-0.014708198
253	0x3c8d7693	0.017268455
254	0x3c5b2f65	0.013377999
255	0x3cc8f7d4	0.024532236

MatMul_1 f4 [32, 32]
0	0xbddfe6df	-0.10932707
1	0x3ba18a4c	0.0049298164
2	0x3d31ef11	0.043440882
3	0xbdb029cc	-0.08601722
4	0x3e3691d1	0.17829062
5	0xbc23a4c3	-0.009988013
6	0x3e1badc5	0.15203007
7	0x3d73dc42	0.059536226
8	0x3d778005	0.060424823
9	0x3e2770b1	0.16351582
10	0x3da678a9	0.08128483
11	0x3dfdf37a	0.12399955
12	0x3dbe675c	0.09297058
13	0xbdf73977	-0.120715074
14	0x3e15f840	0.14645481
15	0x3e3d2890	0.18472505
16	0xbdaaf2c0	-0.08347082
17	0x3dd5b4c7	0.10434871
18	0xbddf16c9	-0.10893018
19	0xbe1b9fc7	-0.15197669
20	0xbdfe31a0	-0.12411809
21	0x3e2affeb	0.16699187
22	0x3e2f2fd4	0.17108089
23	0xbda9bca4	-0.082879335
24	0x3e581336	0.21101078
25	0xbdc1090b	-0.09425553
26	0xbdb094c3	-0.08622124
27	0x3cf68e27	0.03009708
28	0xbd7a9926	-0.06118121
29	0xbd76768f	-0.06017166
30	0x3da9defc	0.08294484
31	0xbd9b35af	-0.07578599
32	0xbd2d76fb	-0.042349797
33	0xbd894601	-0.06702805
34	0xbdb2141b	-0.08695241
35	0xbb1d1c48	-0.0023973156
36	0x3d29f9c2	0.041497953
37	0x3d4b81f8	0.049684495
38	0xbccfe19f	-0.02537614
39	0xbe2e7302	-0.1703606
40	0x3d9ab2ea	0.075536564
41	0xbc976499	-0.018480586
42	0xbcad7f4f	-0.02117887
43	0xbdccac38	-0.099937856
44	0x3cdaf7af	0.026729433
45	0xbb7d2354	-0.0038625794
46	0xbdbd1782	-0.092329994
47	0xbdd8f47b	-0.10593506
48	0xbbdbe5f0	-0.0067107603
49	0x3e4cb72e	0.19991753
50	0x3d486454	0.048923805
51	0xbd7b07bb	-0.06128667
52	0x3e18017c	0.14844316
53	0xbdf6ed80	-0.12057018
54	0x3d018675	0.03162237
55	0x3d70f574	0.058827832
56	0x3d92a614	0.07160583
57	0x3dd4a7e8	0.10383588
58	0x3df78bec	0.12087235
59	0xbde8ccdd	-0.113671996
60	0x3e46a7b1	0.19399907
61	0xbcafc9ce	-0.021458533
62	0xbd0c609b	-0.034271818
63	0xbdefb7ea	-0.11705001
64	0xbd93450d	-0.07190905
65	0xbdee22ff	-0.11627769
66	0xbe2f424d	-0.17115135
67	0x3ba2fb5f	0.0049738134
68	0x3ce9c28e	0.028535154
69	0x3de3f675	0.11130992
70	0x3d8f4ce0	0.069970846
71	0xbdc42a4f	-0.09578382
72	0x3e221699	0.15828933
73	0x3dc23e42	0.09484531
74	0xbe18bec0	-0.14916515
75	0xbe094e11	-0.13408686
76	0xbdc359f6	-0.09538643
77	0x3e2644cc	0.16237181
78	0x3dad905c	0.084748
79	0xbdf65adc	-0.12029049
80	0xbc972d1c	-0.018454127
81	0xbcd79d76	-0.0263202
82	0xbd64a600	-0.055822372
83	0xbe0d352b	-0.13789813
84	0x3bddab88	0.006764833
85	0xbd8e0b96	-0.069358036
86	0xbc73ce8a	-0.014880786
87	0x3dc50141	0.0961938
88	0xbda817aa	-0.082076386
89	0xbd077bd5	-0.03307708
90	0x3d8a43fe	0.0675125
91	0xbe098342	-0.13428977
92	0x3deb2ff1	0.114837535
93	0x3e3d7fa6	0.18505725
94	0x3d2eba65	0.04265823
95	0xbd4d6fb9	-0.050155375
96	0xbcd761c3	-0.026291734
97	0x3e022349	0.12708773
98	0x3d9c63da	0.07636233
99	0xbdc89176	-0.097933695
100	0x3e437a5f	0.1908965
101	0x3e39de24	0.18151146
102	0xbe0bf9a2	-0.13669446
103	0xbced1ba5	-0.028943846
104	0xbc10b3e1	-0.008831949
105	0x3e137310	0.14399362
106	0x3d82d043	0.06387379
107	0xbbad957b	-0.0052973605
108	0xbe21e7e4	-0.15811116
109	0xbdf0ea46	-0.11763434
110	0x3dc56ab3	0.09639492
111	0x3dd8fd0d	0.105951406
112	0xbe0b6f51	-0.13616683
113	0xbc867225	-0.01641185
114	0xbd8bf8b1	-0.068345435
115	0x3e14103c	0.14459318
116	0x3df1f608	0.11814505
117	0xbd370ba9	-0.044688854
118	0x3e12b700	0.14327621
119	0xbdc7f5b2	-0.097636595
120	0xbe0428c2	-0.12906173
121	0xbe0f894b	-0.14017217
122	0x3decff73	0.115721606
123	0x3c9befa7	0.019035174
124	0x3dc7ee30	0.097622275
125	0x3de61904	0.1123524
126	0xbe2f5473	-0.17122059
127	0x3db3062b	0.08741411
128	0x3de9bea7	0.11413317
129	0xbe08af10	-0.13348031
130	0x3d9802bc	0.074223965
131	0xbd6e84b0	-0.05823201
132	0xbe0758d2	-0.13217476
133	0xbd897fa9	-0.06713802
134	0xbe0ac532	-0.13551787
135	0x3c148108	0.009063967
136	0xbe18f651	-0.14937712
137	0x3d02c0a7	0.03192201
138	0x3e0c2199	0.13684691
139	0xbd013ddb	-0.03155313
140	0x3cc20684	0.023684748
141	0x3def187e	0.116745934
142	0x3d39b4f5	0.04533859
143	0x3c34314b	0.0109980805
144	0x3da20a5e	0.07912134
145	0xbc8f3171	-0.01747963
146	0x3e2963e4	0.16542011
147	0xbd45e200	-0.048311234
148	0x3d8554b0	0.065102935
149	0xbba2e60c	-0.0049712714
150	0xbe0eabc5	-0.13932712
151	0x3dfc019e	0.12304996
152	0x3e012783	0.12612729
153	0xbe11722f	-0.14203714
154	0x3c86c99a	0.016453553
155	0xbdf51abc	-0.1196799
156	0x3db10c62	0.0864494
157	0xbdfd9cf9	-0.12383456
158	0x3bf395bd	0.0074336217
159	0xbdfda445	-0.123848476
160	0xbd261428	-0.040546566
161	0xbe1997db	-0.14999335
162	0xbdb52f3f	-0.08846902
163	0xbce68cd7	-0.02814333
164	0xbd6e5b03	-0.058192264
165	0xbe1387fa	-0.1440734
166	0xbd70095c	-0.058602676
167	0x3e10ce07	0.14141093
168	0x3df1b2f4	0.11801711
169	0x3d30b29b	0.04313908
170	0x3b19ba64	0.0023457045
171	0x3bb99c6e	0.0056644
172	0xbd8a2a9e	-0.0674641
173	0xbdc8b5f9	-0.098003335
174	0x3dc61ac4	0.09673074
175	0xbd93828d	-0.07202635
176	0x3e06563c	0.13118833
177	0xbe2e1149	-0.16998781
178	0xbe009414	-0.12556487
179	0xbd8875a6	-0.06663065
180	0x3daa22b3	0.083073996
181	0xbd582a7d	-0.052774895
182	0x3dcabcbf	0.09899282
183	0x3d062941	0.032754187
184	0xbd14550c	-0.03621392
185	0x3cf39375	0.029733399
186	0x3dae702d	0.085174896
187	0x3c5ac86b	0.013353447
188	0xbe237260	-0.159616
189	0xbd046899	-0.032326315
190	0x3d0403ab	0.03223006
191	0xbbfd9c25	-0.007739561
192	0x3db0ea3f	0.08638429
193	0xbe0137c1	-0.12618925
194	0x3d6845f7	0.05670735
195	0x3c90ce46	0.017676484
196	0xbdccb910	-0.09996235
197	0xbcb67d98	-0.022276685
198	0x3dfc1f99	0.12310714
199	0x3ddc8763	0.107680105
200	0xbe1b1467	-0.15144502
201	0x3d850496	0.06495015
202	0xbc33a47b	-0.010964508
203	0x3ca0ec1a	0.019643832
204	0xbd9d6848	-0.07685906
205	0x3b63f682	0.0034784381
206	0xbdd06cd6	-0.10177009
207	0x3daaecdf	0.08345961
208	0xbdfd5f56	-0.123716995
209	0x3dd21756	0.10258357
210	0x3dd1ff8c	0.1025382
211	0xbe194cf3	-0.1497076
212	0xbd3a44b8	-0.04547569
213	0xbde1ad09	-0.11019332
214	0x3d82f507	0.063943915
215	0x3d965c15	0.07341782
216	0x3e11ead9	0.14249744
217	0x3d1ed29f	0.038775083
218	0x3da60428	0.081062615
219	0xbe2769cf	-0.16348957
220	0x3d25122d	0.040300537
221	0x3bf9b590	0.007620521
222	0xbe10d0bb	-0.14142124
223	0xbe16b24f	-0.14716457
224	0xbc9594ad	-0.01825937
225	0x3daa3f3b	0.083128415
226	0x3ca976e8	0.020686582
227	0x3d8f91ea	0.07010253
228	0x3df77d45	0.1208444
229	0xbe0d7e02	-0.138176
230	0xbdc59632	-0.09647788
231	0x3db6fc29	0.089348145
232	0x3c2d7f0f	0.010589375
233	0x3d3ef66d	0.04662173
234	0xbd478d9f	-0.048719045
235	0xbda069c0	-0.0783267
236	0x3dbf6019	0.09344501
237	0xbe02ccf4	-0.12773496
238	0x3d9a645d	0.07538674
239	0x3d715405	0.058918018
240	0xbb60c7d2	-0.003429879
241	0xbda0a8f6	-0.07844727
242	0xbacb4fcb	-0.0015511451
243	0x3cadd29e	0.021218594
244	0x3d87440c	0.06604776
245	0x3ba50a63	0.0050366386
246	0xbe1a7c0b	-0.15086381
247	0x3ded28c4	0.11580041
248	0x3c153906	0.009107834
249	0xbe1eea65	-0.15519102
250	0xbdb677b2	-0.08909549
251	0x3cab5ca4	0.020918198
252	0xbc2172df	-0.009854048
253	0x3b42260e	0.0029624733
254	0xbe242d8f	-0.16033004
255	0x3e161011	0.14654566

MatMul_2 f4 [1, 32]
0	0x3d80f0a8	0.062959015
1	0x3e029d77	0.1275538
2	0xbec1894e	-0.37800068
3	0xb9b6c6cb	-0.00034861857
4	0x3c0c1210	0.008549228
5	0xbd3fbe15	-0.046812136
6	0xbd1802d5	-0.037112076
7	0xbd8176b3	-0.06321468
8	0xbea547c1	-0.32281306
9	0x3d92b3a2	0.071631685
10	0xbe82176e	-0.254085
11	0x3e5ed2b2	0.21760061
12	0xbeb526a5	-0.35381046
13	0xbebaa719	-0.3645561
14	0xbbec0736	-0.007203008
15	0x3e42a8e7	0.19009744
16	0x3dead35c	0.11466095
17	0x3e40c3b7	0.1882466
18	0x3e4deed1	0.20110632
19	0x3e3bfbc0	0.18357754
20	0xbe9b3b5f	-0.30318734
21	0x3e39d93e	0.18149278
22	0xbeb47f5b	-0.35253415
23	0xbeb08fa2	-0.34484583
24	0x3e45d5b6	0.19319806
25	0x3d405598	0.04695663
26	0xbd6163fb	-0.05502699
27	0x3ca31d80	0.019911528
28	0x3e453b7a	0.1926097
29	0xbeca8818	-0.39556956
30	0x3dde6165	0.1085842
31	0x3e03b4b8	0.12861907
